mnist_cnn/mnist_model.pth (torch_old, 179231 bytes, 10 tensors)

conv1.weight f4 [6, 1, 5, 5]
00000000: 172a 513e 0a7f fd3e f9c8 453c 81f5 fcbe
00000010: e837 c0be e60e cb3e dd01 bd3e 2a0d 90be
00000020: 09b3 efbe 9ba9 fabd 5c35 523f a4e9 803d
00000030: e139 08bf efe7 e5be a302 0fbe 0699 a33e
00000040: 364a 8ebb 8a19 febe e85c 8fbe 1a46 713e
00000050: 6ff4 163e 2111 0abe 7230 5bbe 93df e6bd
00000060: 9b2f da3e 1b1d ed3d bfb5 bcbe 2cc6 ecbe
00000070: b360 5e3e 33c7 693e 88f3 1ebf 3f48 d6bd
00000080: bd9e db3e 1a80 ee3e 8089 76be ded2 c83e
00000090: 1a14 543f 68b9 863f 3d8f 1c3e 59ef dfbe
000000a0: db73 6abc f095 9f3e 6cf1 d03e 266b eb3e
000000b0: 1864 d13d 9198 cabe fad2 2abf 93a4 12bf
000000c0: 479e 1e3e ab96 98bd bf94 dabd c771 353e
000000d0: 4cc3 b53e 6a77 80be d643 abbe afd9 2cbe
000000e0: cc79 143f 5815 7b3e f4e3 f6be e4f3 24bf
000000f0: ce7f 6cbe 3b2b 3c3f aa54 c83d 2cf7 00bf
00000100: f205 85bb 3574 4b3d 6380 2e3f eb59 4e3f
00000110: 5345 a33e 6447 a23e b597 2d3d a4f3 8dbc
00000120: 27e3 cb3e 79ea b43e 3d92 e53d 912f 23bd
00000130: b9d2 c83e 5990 863e d72b 1bbe 8eb1 c93e
00000140: 05ed 673e ad2e e13d 1854 a0bd 4663 50bd
00000150: e4b9 b03e 3be4 88be d8fd 223e 27a6 0d3e
00000160: b631 763e 678f c43d 070a ca3d c731 0b3f
00000170: f388 0c3f 98f1 b23e ba58 923e 881a 833d
00000180: 381b 1d3e 4064 ebbd af08 e4be 3624 29bf
00000190: 0864 9a3d 715c 66bd 5e1a c83e 8996 b73e
000001a0: b872 903e ddb8 afbe dbc5 04bf 604e 57bf
000001b0: b501 4cbf 6602 1dbf 6b69 723e 5e27 dfbe
000001c0: 9b70 76bf d146 2ebf 3b41 12be 578d b83e
000001d0: a0b5 053f bdc9 4cbe afdc 663e 995a 873e
000001e0: 8dd1 9b3d 894e 583f a54c 823f 500d 4d3f
000001f0: 185a 273e 5814 683e 580b 583e 08fc 363d
00000200: ac6d a8be d43b 22be 85d9 0e3f 2ed8 e23d
00000210: 05b8 d3bc 1ffd 4ebe 8c2e 9bbe e718 e43e
00000220: f4a7 e03d afde c3bd f3d8 03be d0e8 09bd
00000230: 425c 943e dd3b 8b3e ab57 23be 2512 24be
00000240: 4fd0 b0be ff06 523d 8d0f 063e 89dd 93bc
00000250: 35d4 4ebd 2bcb 51bd
0.20426212 0.49510986 0.012071841 -0.49406055 -0.37542653 0.39659804 0.36915484 -0.28135043
-0.4681628 -0.12239381 0.8211267 0.062945634 -0.53213316 -0.44903514 -0.1396585 0.31952685
-0.0043423427 -0.4962886 -0.2800057 0.23561898 0.14741682 -0.13483097 -0.21405199 -0.11273112
0.42614445 0.11577817 -0.3685741 -0.46244943 0.21716575 0.22829895 -0.6209035 -0.104629986
0.42894545 0.4658211 -0.2407589 0.3922338 0.8284317 1.0525331 0.15289016 -0.43737295
-0.014309849 0.3116908 0.4080919 0.45980185 0.102241695 -0.39569524 -0.66728175 -0.5728237
0.15490066 -0.07450613 -0.10672902 0.17719184 0.35500562 -0.25091106 -0.33450192 -0.16879915
0.5799835 0.2451986 -0.4822079 -0.6443465 -0.23095629 0.73503464 0.097817734 -0.50377154
-0.0040595466 0.04967137 0.6816465 0.80605954 0.31888828 0.31695092 0.042381007 -0.017328091
0.3982174 0.35335138 0.11209533 -0.039840285 0.3922327 0.26282004 -0.15153442 0.39393276
0.2264901 0.10995231 -0.078285396 -0.050875925 0.34516823 -0.26736626 0.15917146 0.13832913
0.240424 0.09597664 0.09865194 0.5437283 0.5489647 0.34949946 0.28583318 0.06401545
0.15342414 -0.114937305 -0.44537875 -0.6607088 0.07538611 -0.056240503 0.39082617 0.35857037
0.28212523 -0.34320727 -0.51864403 -0.84103966 -0.79690105 -0.61331785 0.23673026 -0.43584722
-0.9626557 -0.6807681 -0.14282696 0.36045334 0.5223026 -0.19998832 0.22545122 0.26436308
0.07608328 0.84494835 1.017964 0.8009844 0.16342962 0.2266401 0.21098077 0.04467395
-0.32896173 -0.15843135 0.5580066 0.11076389 -0.025844583 -0.20213746 -0.3030895 0.4455025
0.109695345 -0.09563958 -0.12875728 -0.033669293 0.28976637 0.2719411 -0.15951411 -0.16022547
-0.34533927 0.051276203 0.1309187 -0.018049972 -0.050495345 -0.051219147

conv1.bias f4 [6]
00000000: 36f2 5bbe de7d 63bd 0579 3fbf 31dc f3be
00000010: 9906 c9bc 01d6 9ebd
-0.21479115 -0.05553996 -0.74794036 -0.4762893 -0.024539279 -0.07755662

conv2.weight f4 [16, 6, 5, 5]
00000000: c581 9b3d 115f 143d 1923 32bc 3f58 e8bd
00000010: d72c 1dbd 2b8c 233e 0361 e73d b8d3 073e
00000020: c4a4 56bb 447a 2c3d 3f48 0e3e ba06 863e
00000030: b4ec d23d 618c a13d 3453 483c 36ad 5b3d
00000040: b956 153e cf17 09bd ba6a 093c 362e 663e
00000050: a593 3d3e 6505 7f3e fd1c 9a3b dfe0 603e
00000060: 2c87 1e3e c8bb 20bd 4c4a 19be 1021 a8be
00000070: 18f1 c7be 094d b3be 413a 843d 49b4 7bbe
00000080: 9759 21bf de29 96be 48ec 2e3e a0d8 1b3e
00000090: b443 ebbe faa4 7ebe d53b 123e 2233 303e
000000a0: 4c6d 813d 34dc e4be 333c 6cbe d9e2 943e
000000b0: dab0 fb3d a42a 213d dd4d 01be 75ae 213d
000000c0: 0406 e13e ef05 12be 830c ffbd 27fa b4be
000000d0: 56b7 75be 31f6 abbe 1292 ac3d e2b6 463d
000000e0: daeb 1abe f30b 93be c006 48be e319 08bd
000000f0: 1956 e53d c9ad b3bd 6ecc 4fbe 02e8 52be
00000100: 9b68 323d 8bf4 343e 5e7f 043e a31e 26be
00000110: eaad 06be 9ed7 8e3e 3ca1 403e 34f8 543c
00000120: 405f 3fbe a4e2 a13e d7bf cb3e 3c17 b33b
00000130: 3ec5 50be 411f 41be c6e3 3cbe 43ee e8bd
00000140: 5e57 903c d523 8a3c c106 dcbe 83c6 a1be
00000150: e189 843d bdc2 fa3d d9ee 26be a1ab c2be
00000160: 7bf8 2d3d e691 683e dfdc e93d 58bc 1cbe
00000170: 7d35 8dbe e883 043e 5651 f63d 81e3 833e
00000180: f704 cabc e021 8b3d d76e 7c3e ecf9 2d3e
00000190: ef86 1fbc 2559 3abd 9345 a4be 3558 35be
000001a0: c8dd 283e f562 96bd bd5a 0bbe 03f3 5dbe
000001b0: b93b cebb bff6 e83d 4d4e 7cbe 873c 92be
000001c0: 7f83 f2bd 1af3 5a3d 0347 3dbe b90b 45be
000001d0: 896f b2bd 0f33 053d 0c97 84be 46e5 44be
000001e0: 73b3 9ebd 8c55 143e 82ae f9bd dcc0 5abe
000001f0: 7fd1 30be 5d7a f73a 8862 80bd 50f2 f9bd
00000200: 6a7f c7bd 7bec 89bd ab7c e03d af76 2d3e
00000210: 9b10 473d 68ca bebd d04c 06be c98b 203d
00000220: 3bd1 8e3e a9ae 1ebd 1c35 4c3b b4c0 ff3d
00000230: 8a50 233d 3142 1b3e 2844 59be 7d4a bcbd
00000240: c517 303e 1bde 803d 83a2 6f3d 6b01 ffbd
00000250: c77f 6f3d 02e4 6b3e 9a38 e1bb 2ddd 133e
00000260: 2f40 843e a9b9 993d e2da 073e b72f 25bd
00000270: 9348 e83d ead7 ca3d 4649 a83d 3539 413e
00000280: e88b 563d c37e 04bc 8c0e 1bbe 1fe1 d3bd
00000290: 08b0 ab3c 34e5 e7bc 48f1 22be 8ba0 e9bd
000002a0: 17e5 97bd 9059 793d 3e2d 3abd 69d8 f2bd
000002b0: f878 29be a261 613c e6bb 543e 835c 86be
000002c0: bbcd bfbd c8ea 163e 2d20 1a3e 3def 3ebe
000002d0: 013c 5abd 1522 3bbd 4673 3f3e 5235 8d3e
000002e0: c7d9 23be 4126 e3bd 0c91 61be 921e a1be
000002f0: 975e 6cbe 0b92 94be 57d2 0fbc 7b58 ae3e
00000300: f30b dbbe d891 493d 78e6 023e e434 b3bd
00000310: e0cd bfbd 6480 5b3d 8c67 1e3f 1c18 833d
00000320: 480e 17be f71c a73d 82e9 4d3e a7d7 92bc
00000330: 9cad 11be c4b8 6ebe 3ce8 f4bd 2ef3 373d
00000340: 171e 1e3e 54d5 8abe f70f 2d3e ac21 163d
00000350: eef7 8bbe c3b7 063e 67a8 ffbd b08c 783e
00000360: 57d5 cc3e fbb1 9d3e 329b bcbd 5c6c 693e
00000370: 7ab2 6fbe ad28 5f3e 718d 2cbe 6a32 11be
00000380: f9e8 cdbd c0e3 62be a042 13be 406b f8bd
00000390: 9767 e5bb 8746 eabd 2da3 c5bd 493f 7fbd
000003a0: ac5d 323d 0801 0dbd 7d0d 3ebe 1124 bbbd
000003b0: f597 38be e1e7 53be 300e 7bbe f042 413d
000003c0: 2232 373e d524 34be d33e 0ebc e0bb 783e
000003d0: b385 df3d 54b9 ef3d 1cbc 153e 1930 953e
000003e0: bbfa 76bd 9a31 a1be 1857 f2bc f586 a2be
000003f0: db61 91bd dabb 26bd b1b9 a7bd 2eda 8abd
0.07593111 0.036223475 -0.010872626 -0.113449566 -0.03837284 0.15971439 0.112978004 0.13264358
-0.0032752017 0.04210879 0.13894747 0.26177007 0.10299054 0.07888103 0.012226868 0.053631984
0.14583863 -0.03346997 0.008387262 0.22478566 0.18513353 0.24904402 0.0047031627 0.21960782
0.15481251 -0.039241582 -0.14969748 -0.32837725 -0.39051127 -0.3501971 0.064564236 -0.24580492
-0.6302733 -0.29328817 0.17082322 0.15219355 -0.4595009 -0.24867621 0.14280637 0.17207006
0.06319675 -0.44699252 -0.23069839 0.2907932 0.12289591 0.039347306 -0.12627359 0.039473016
0.43949902 -0.14260076 -0.12453558 -0.353471 -0.23995718 -0.33586267 0.08426298 0.048514254
-0.15129033 -0.28720054 -0.19533825 -0.033227812 0.111980624 -0.08773381 -0.20292827 -0.20596316
0.04355679 0.1767141 0.12939212 -0.16222624 -0.1315228 0.27898878 0.18811506 0.012998629
-0.18688679 0.31618226 0.397948 0.0054654162 -0.20387742 -0.18859579 -0.18446264 -0.1137357
0.017619785 0.01686279 -0.42973903 -0.31596765 0.06471611 0.12244175 -0.1630205 -0.38021567
0.042473298 0.22711906 0.11419081 -0.15306222 -0.2757987 0.12940943 0.12027232 0.2575951
-0.02466057 0.067935705 0.24651657 0.16989869 -0.0097367605 -0.04549517 -0.3208433 -0.1770943
0.16490853 -0.07343093 -0.13608833 -0.21674733 -0.0062937406 0.11375188 -0.24639244 -0.28561804
-0.11841487 0.053454496 -0.1848412 -0.19242753 -0.0871268 0.032519396 -0.2589649 -0.19228086
-0.07749071 0.14485759 -0.12191488 -0.21362633 -0.17267416 0.0018881072 -0.06268793 -0.122044206
-0.09741099 -0.06734558 0.109612785 0.16939805 0.04859982 -0.0931595 -0.13115239 0.03919581
0.27894005 -0.038740788 0.0031159585 0.12487927 0.03987173 0.15161969 -0.21217406 -0.09193895
0.17196567 0.06292363 0.058504593 -0.12451442 0.058471467 0.23036197 -0.0068732025 0.1443984
0.25830218 0.07506115 0.13267091 -0.040328708 0.113419674 0.099044636 0.08217101 0.18869479
0.05237952 -0.008086863 -0.15142268 -0.10345673 0.020957962 -0.028307535 -0.15912354 -0.11407574
-0.07416742 0.06087643 -0.045453303 -0.11857683 -0.16550052 0.013756188 0.20774803 -0.26242456
-0.09365412 0.14738 0.15051337 -0.1864595 -0.05327988 -0.0456868 0.18696317 0.27579743
-0.16001044 -0.11091281 -0.22027987 -0.31468636 -0.23082958 -0.29017672 -0.008778176 0.3405188
-0.42782554 0.049211353 0.1278323 -0.087503225 -0.093654394 0.05358924 0.6187675 0.06401083
-0.14751542 0.081598215 0.20108607 -0.017925097 -0.14226383 -0.2331267 -0.11958358 0.04490965
0.15441166 -0.2711588 0.16900621 0.036653206 -0.27337593 0.13156037 -0.12483292 0.24272418
0.40006515 0.3079985 -0.09209289 0.22795242 -0.23407927 0.2179286 -0.1685083 -0.14179388
-0.10054202 -0.22157192 -0.14380884 -0.12129831 -0.0070008743 -0.11439233 -0.09650264 -0.062316213
0.043546364 -0.03442481 -0.18559833 -0.091377385 -0.18026717 -0.20693924 -0.24517131 0.047182977
0.17890218 -0.17592175 -0.008681971 0.24290419 0.10914173 0.117052704 0.1462254 0.29138258
-0.06029771 -0.31483155 -0.029582545 -0.3174359 -0.070987426 -0.040706493 -0.08189715 -0.06779896

conv2.bias f4 [16]
00000000: 2fa5 0fbe 6027 1b39 0ee9 a93b 1ba0 4cbe
00000010: 999d f0bd c141 07be c749 23be a879 8dbd
00000020: ffa2 e23d e0e0 30bd 3e7d dcbe dcfa 603c
00000030: d8b5 35be 61c7 e1bd ba6b 7dbe 894a 75bc
-0.14027856 0.0001479662 0.005185253 -0.1998295 -0.11748809 -0.13208677 -0.15946113 -0.0690797
0.11066245 -0.043183208 -0.43064302 0.013731685 -0.17745149 -0.11024357 -0.24748126 -0.014971384

fc1.weight f4 [120, 256]
00000000: a91e 12bc 6c2e 2bbd f323 b43c f4fa 603d
00000010: 764d 85bc c322 20bc 95bc b3bc bd3b b93a
00000020: dac0 dc3c 3e6d f4bc 1823 3b3d fa33 a73c
00000030: b93c cfbc c505 94bc 32d3 4f3d 0317 d33c
00000040: ad60 143d 52be df3a bf31 e43c ddba c4bc
00000050: ead5 edbb 34b4 213d 0542 343d 2a8a e63c
00000060: fc49 50bd 5115 d93c 2cde 34bd f9db ccbb
00000070: 1c14 723d 12c2 1f3c 63c7 0cbd 7ba9 41bd
00000080: 2919 9a3b caa0 403d e83e 623d e8ba f6bb
00000090: 53ef 6f3c 0d07 febc 1337 23bd f7e8 63bb
000000a0: 8f63 f6bc fafe 85bc 233d ee3c 44a9 fdbc
000000b0: 6670 133d c3de a2bc dfbb 173d 0134 113c
000000c0: 5f4b acbc fc8a 703b 5b8a 3c3a 7831 0ebb
000000d0: 3f82 5c3c 259e 83bc 420e 613d f045 44bd
000000e0: c52a 3e3c 608c 7d3c f07f afbc f398 2e3c
000000f0: ee4d 4dbc cd6c 96bc 57c8 583d db32 74bd
00000100: 10b8 72bd 1710 563d 5b85 ed3c 88b7 43bc
00000110: 591b c0bb 26c9 3cbd b91c 11bd ff6a 1b3d
00000120: 957d 3bbd 8119 0fbc 1246 4e3d f762 803c
00000130: c015 393d 7c55 8abc 3467 fdba ea4c a1bc
00000140: bcaf 75bd cfa1 1f3d ca4d 77bd 1296 8b3a
00000150: b7cd a9b9 5fab b4bc 3503 173d f1a6 f83a
00000160: 5f05 4ebd dcb6 2dbc 9919 a93c edc5 973c
00000170: 2e3b 3d3d fc57 6fbd d9a1 7ebd 8c70 2abd
00000180: 9754 d2b9 d659 26bd 4f85 4bbc 1d96 4a3b
00000190: dc7b 31bd c48b 4fbd 93af 12bd 8191 1dbc
000001a0: 4422 e53c b2ef b4bb 3c80 8a3c eb43 443d
000001b0: 5762 f1bb 2438 833c 0a28 4ebc 3453 ba3b
000001c0: cd79 0cbd edbb 2abd 991b 753c b305 51bd
000001d0: 42da 62bd 3be0 013d 84d3 2fbb 891b 57bc
000001e0: 5e27 68bb 6228 f23b 554d 843c f8b5 4ebd
000001f0: ec8f 4a3d e01d 5bbd 063f 803c 8aa2 2abb
00000200: a7cb 743d b037 303d fb84 4fbc 2d1f 55bd
00000210: 5fcf 52bd 86aa 583d ae74 49bd 57c8 80bd
00000220: 83fd 4abd 743a f1bc 27db 63bd 1995 b63c
00000230: 0ec1 f63b c5ca 7abd 693a 3dbc 7797 21bd
00000240: 5daa 22bc 4b1b abbc 1be8 d23b 31fd e3bc
00000250: 7548 c63c 7dfa 29bd f49c 793c 949f af3b
00000260: 0ea4 7abd 7851 b6bb e461 6f3c 69d2 5bbd
00000270: 79d4 02bd 3a18 a33b a677 b7bc cb5a 1fbd
00000280: 8df9 ccbc b414 573d 961b 76bd f913 e53c
00000290: 0282 a3bc 45a4 4dbc d630 123d b30f 86bd
000002a0: e961 5a3c cad4 373c 001f bebb 04e3 32bd
000002b0: 5bbd 67ba d303 68bb bd64 67bd 8de2 ca3c
000002c0: 75b4 0dba bf64 413d c745 043d 4db7 053d
000002d0: 30a5 5cbd 9c80 553d 9ba1 27bb bb5f 603b
000002e0: be30 d43c a3ee 733c 479b 45bd 556c 6bbc
000002f0: efca 49bd 4ff2 083d cb1c d7bb 81ed 8cbc
00000300: 18ff 243c ee09 ef3c 0eea c138 f108 e73c
00000310: 3ae1 0dbc 2445 f33c 992b 0bbd 91eb 85bd
00000320: ef52 26bd 8c30 043d 92ac 283d 0ca0 123d
00000330: 3af4 04bd df35 56bd 52ab 5cbd 2ef0 72bd
00000340: d549 0a3c d1be debc cf06 77bc 49ca b7bb
00000350: 8bba b5bb 8ab0 923b dfeb 2b3d 391d 88bc
00000360: 1e6f 283d a704 fa3c 159c 3fbd 29c2 0e3d
00000370: f58b 69bc 1119 f0bc c044 2cbd 2fbc 20bd
00000380: cd1a 7abd 8605 633d 146d 493d 94cd 26bd
00000390: 6d44 a2bc 94ff 4cbd 400c 173d 680f 6839
000003a0: a5ce 803c 821d 80bc d3a7 cf3c d4cd 7a3c
000003b0: e30d 9fbc a47a 533d 639e 863b 246e febc
000003c0: 2a72 1bba c7b7 cbbc 6fb1 16bd 97ff 2ebd
000003d0: c37e 6a3d a8c8 20ba d880 283d 09b9 b33b
000003e0: 6ec1 30bd 7022 6e3d 753a 36bd 7e5c 463d
000003f0: 7bd4 933c 1255 cdbb 8d78 77bd 78e6 bc3b
-0.008918443 -0.04179232 0.021989798 0.054926828 -0.016272288 -0.009773913 -0.021940509 0.0014132183
0.026947428 -0.029837247 0.045687765 0.020410527 -0.02529751 -0.018069157 0.05073852 0.025767809
0.03622501 0.001707027 0.027855752 -0.024014885 -0.0072581666 0.039478496 0.044008274 0.028142054
-0.050851807 0.026499422 -0.044157192 -0.0062518087 0.05910121 0.00975086 -0.034369837 -0.04728077
0.0047027064 0.04702834 0.055235773 -0.007529605 0.014644462 -0.031009221 -0.039847445 -0.003477631
-0.03007677 -0.016356934 0.029081887 -0.030964501 0.035995863 -0.019881612 0.037044402 0.008862496
-0.021032033 0.0036703935 0.00071922474 -0.0021696966 0.013458787 -0.01606662 0.054945238 -0.04791826
0.011606877 0.015475363 -0.02142331 0.010656583 -0.012530787 -0.018362427 0.052925434 -0.059618812
-0.059257567 0.05226144 0.028994253 -0.011945613 -0.005862635 -0.046090268 -0.035427783 0.037943836
-0.04577406 -0.008734108 0.050359793 0.01567219 0.045186758 -0.016886465 -0.0019333125 -0.019689996
-0.059982046 0.038972672 -0.06037692 0.0010649583 -0.0003238746 -0.022054372 0.036868293 0.0018970651
-0.05029809 -0.010602679 0.020642089 0.018526996 0.046199016 -0.058433518 -0.06216607 -0.04161124
-0.00040117346 -0.040613018 -0.01242192 0.0030912228 -0.043331012 -0.0506704 -0.035811972 -0.00961721
0.02797044 -0.005521738 0.01690685 0.047916334 -0.0073664594 0.01601798 -0.012582788 0.005686188
-0.034295846 -0.041683126 0.014960193 -0.051030826 -0.055383928 0.031707983 -0.0026828954 -0.0131291235
-0.0035423855 0.007390068 0.016150156 -0.050466508 0.04945366 -0.053495288 0.015655052 -0.0026036822
0.05976453 0.043021858 -0.012665982 -0.052031685 -0.051467296 0.052897 -0.04918354 -0.06288212
-0.049558174 -0.029446818 -0.05562892 0.022287892 0.007530338 -0.061228532 -0.011549571 -0.03945109
-0.009928313 -0.020887038 0.0064363605 -0.027830692 0.024204472 -0.04149865 0.015235174 0.0053595994
-0.06119161 -0.005563911 0.014610741 -0.05366746 -0.03194091 0.0049772533 -0.02239592 -0.038904946
-0.025021339 0.05250998 -0.0600849 0.027963625 -0.019959453 -0.012551372 0.035691105 -0.06545963
0.013329008 0.011220166 -0.0058020353 -0.04367353 -0.0008840167 -0.003540267 -0.056492556 0.024766231
-0.00054056133 0.04721522 0.032293107 0.032645512 -0.053868473 0.052124605 -0.0025578502 0.0034236747
0.025902148 0.014888438 -0.048243787 -0.01436909 -0.0492658 0.03343421 -0.0065647117 -0.017203094
0.010070585 0.02917954 9.246553e-05 0.028202506 -0.008659655 0.029696055 -0.033977125 -0.06539071
-0.040606435 0.03227286 0.0411802 0.035797164 -0.032459475 -0.05229747 -0.05387432 -0.059311084
0.0084404545 -0.027190598 -0.015077307 -0.005608831 -0.0055459193 0.0044766115 0.04197299 -0.016615497
0.041121595 0.030519797 -0.04677971 0.034853134 -0.01425456 -0.029308828 -0.042057753 -0.039241966
-0.061060715 0.05542519 0.04917629 -0.0407234 -0.019808019 -0.050048426 0.036876917 0.00022130983
0.015723536 -0.01563907 0.02534858 0.015307862 -0.019415801 0.05163063 0.0041082366 -0.031058379
-0.00059297925 -0.024867905 -0.036790308 -0.04272422 0.057249796 -0.0006133416 0.0411385 0.0054847044
-0.04315322 0.05813831 -0.044489343 0.04842805 0.018045655 -0.0062662447 -0.0604177 0.0057647787

fc1.bias f4 [120]
00000000: 0d08 0d3c 6ea4 05bd 91d0 4abb 2766 0dbc
00000010: 8d88 92bc a487 d83c 47d5 c53d f646 763d
00000020: 3408 b53d b2b1 823d 25a8 abbc ca7a 303d
00000030: 22e8 963d 43a9 013d 4c86 053d 85e2 6abd
00000040: c5eb 233d 2373 cbbb 16d5 b9bc 281d 9b3c
00000050: dc7f 033d 8172 07bc 1644 94bd af8f a4bc
00000060: c6c9 143d aefd e03b de8f 4bbd 888d 3cbd
00000070: 5bda 9b3d 79c3 263d 4530 fd3c 7149 093d
00000080: 1188 d83d 7171 023b cb1c 9fbd ff0c 10bb
00000090: 310d 123d e5e9 1f3d 1117 423d c119 153c
000000a0: e2d5 0ebc 23d9 f9bb 0a28 cabc 1656 8e3c
000000b0: 85d1 2dbb d962 893d 5f43 f23c 6560 f33c
000000c0: fd18 83bd 2236 81bc b418 58bd dcf5 383b
000000d0: 67ca 6bbd 20ba 1fbc a4ea 6c3d 6a90 59bc
000000e0: 7334 a8bc c5fb b93d b9f5 983b cb84 6bbc
000000f0: 015d 3dbd 0418 6b3c 3e74 0e3d b216 843c
00000100: 24e9 8dbc 4adc 35bd 2b22 073d de39 86bd
00000110: 64a9 973c 9b53 15bd 25c4 e13b 410e 49bb
00000120: f390 4dbd 3c51 5dbd 751b 07bd ab5d 4c3d
00000130: 9ccc 10bd 855d 4c3d 4adf b1bb 5948 60bc
00000140: 35c5 19bd a980 b03d 2f32 433d 444e e93c
00000150: e18a f53c 58c9 003d dc7b d6bc da38 193d
00000160: deec 543d ae92 843d 5613 22bb b236 453d
00000170: f6b5 67bd 0ea1 f83c 5c2c b93a 4ae5 a5bd
00000180: e0c8 44bd d97d c73c 69a9 e9b8 e911 e93d
00000190: 3902 8f3d 3b75 023d dc8e 73bd fe99 6d3d
000001a0: 7a60 68bd 52a5 043d 0669 9c3b ef44 dc3b
000001b0: 9b70 9bbd 9998 1abd e88f 0ebc 1b7b c53d
000001c0: 4861 34bd 6fa2 083c a79b 003d 262d cc3c
000001d0: 8044 2b3d 8573 14bd 856d dc3c 012a aa3d
0.0086078765 -0.032627515 -0.003094707 -0.008630312 -0.017887378 0.026431866 0.0965982 0.060126267
0.08839455 0.06381549 -0.020954201 0.04308585 0.073684946 0.03165556 0.03259878 -0.057344932
0.04001977 -0.0062087937 -0.022684615 0.018934801 0.032104358 -0.008267046 -0.07239549 -0.020088045
0.03632524 0.0068661785 -0.04969775 -0.046033412 0.076100074 0.04071376 0.030906806 0.033517305
0.105728276 0.0019904042 -0.07769164 -0.0021980403 0.03565711 0.03904142 0.04738528 0.0091003785
-0.008717986 -0.0076247617 -0.024677295 0.017375033 -0.0026522588 0.06708307 0.02957314 0.02970905
-0.064012505 -0.015772883 -0.052757934 0.0028222715 -0.057566073 -0.0097489655 0.05784096 -0.01327906
-0.020532822 0.09081224 0.0046679643 -0.014374922 -0.046231274 0.0143489875 0.034778826 0.016124103
-0.017323084 -0.044399537 0.03299157 -0.06554006 0.018513389 -0.036456686 0.0068898373 -0.0030678662
-0.050187062 -0.05403255 -0.03298517 0.049894016 -0.03535138 0.049893875 -0.0054282295 -0.013689124
-0.037541587 0.0861829 0.04765528 0.028479703 0.02997345 0.031442016 -0.026182108 0.037407734
0.051983707 0.064732894 -0.0024730763 0.048147865 -0.056570016 0.030350234 0.00141276 -0.08100374
-0.04804313 0.024352001 -0.00011141861 0.11380369 0.06982846 0.03185008 -0.059462413 0.058008187
-0.056732632 0.032384224 0.004773262 0.0067220847 -0.07589837 -0.037743185 -0.008701302 0.09642621
-0.044038087 0.008339508 0.03139844 0.024923872 0.041813374 -0.03624298 0.026907692 0.08308793

fc2.weight f4 [84, 120]
00000000: b86d d2bb 631f 07be ed63 7bbd 7702 a0bd
00000010: ab68 fdbd da64 2ebc 2bf6 513e 1de1 f0bd
00000020: 001a 0d3e 1e78 e5bc 757a 99bd ebec 89bd
00000030: 3504 da3c 695c 3a3e 15a2 adbc 4b29 c4bd
00000040: d275 2bbd 5a00 04bd 4c98 183d 425a 223d
00000050: 8a61 9cbd 576b e4bc 5a55 04bd e85a b6bd
00000060: 60a7 6c3c cf62 08be 2ee1 293d 3578 013e
00000070: 2799 603d 4160 f23d f94c 53bd 346f 86be
00000080: 5ffb 9ebc f61b 4f3d 3fd8 18be 1ffc 27be
00000090: ef42 fabd 7d8d 1c3e 02ae c23c 206e 033e
000000a0: be22 c8bd 0d54 563e c82a 7c3d 7c1e 9bbd
000000b0: 27c0 34bd 9d4b 34be 977e afbd a745 823e
000000c0: 4a28 703c 5f86 853b f342 69bd aa70 d13c
000000d0: f10f 553e 1ca1 abbc eb76 4ebe d911 85bd
000000e0: a097 ccbd 8714 7c3e 84f7 54bd 8133 e6bd
000000f0: 633d 0dbd 03d0 e6bc eda7 38bd 37ba d8bd
00000100: 56e8 babd 6d54 f33b c6bd 563e b211 fb3d
00000110: ab92 f23c 6478 0cbd 9812 eabd d0e0 543d
00000120: 211a fa3d 9d25 4b3d fbcb f7bc b90a d7bb
00000130: 3880 babb 2cc7 b73c 9879 2b3e 078e f33b
00000140: bdde 7e3e 7b83 ebbd 0d4a cbbd 3729 62be
00000150: fc2e bebd 998d 60bd 2f9a 1a3e 0d61 8fbd
00000160: d245 893c c4ba 3abe 2a57 08bd f157 a2bd
00000170: a349 893d 03c2 b83d ccaf 273c 4559 0e3e
00000180: 6cfe 593c 13c9 1cbd 010a a7bd 8903 c63d
00000190: 27c7 ff3d f995 96bc 8a5b 7dbd 0b85 2fbe
000001a0: 8b77 b63d 78af ccbd 15b7 dbbd 957f 6f3e
000001b0: 1aab 4bbb 9c67 823d 11d2 503d fddf 5dbe
000001c0: 76a1 bbbd 0d1c 493e 4192 6a3d 1185 d03c
000001d0: dac3 90bd ab57 8e3d 2700 66be ecd2 663e
000001e0: 1a85 373b 8d72 e33d 9707 41bd 9fd7 37be
000001f0: 8a63 9e3d 2e6e 83bd 6962 d43d 5004 19bd
00000200: f4ff d73c 1fb5 b3bd 0754 83bc 047c 8e3d
00000210: 113e 073e 37bb 393d 26dd 01be d49a 1dbb
00000220: 8a35 073e 6fcb 8abc 11fd 933d 6021 233d
00000230: a973 9c3d d0d0 0f3e d306 143e 8aa2 11bd
00000240: 9704 9e3d bc34 073e 2134 28be acf5 adbd
00000250: e28b 233e 8d53 86be c51a 013e f986 0cbe
00000260: 361b 8b3d 7ef9 ccbb 443d 5abe e311 11bc
00000270: 99a6 2c3e 71c0 053e 923b 95bd 9f43 94bd
00000280: 98b4 bbbd 4aa8 b43d c1ff 57be 0f5e 933d
00000290: 75c6 083e fd16 9f3e 510a 873d d5a8 04be
000002a0: 1a32 e2bd ab28 873d 0b79 3bbe 0da8 903d
000002b0: c5f9 1abc 65c5 8c3d 6b00 753a 4216 673e
000002c0: 0848 c83d 5202 113e 88a9 2b3e 4174 743e
000002d0: c9a7 13bd 4b34 48bd 9e27 dd3d fe77 853d
000002e0: 617e c63d d105 213e 1115 edba 2f3c 92be
000002f0: 3292 d43c b22b 563d 6234 2ebd 3c93 603d
00000300: d2f7 dd3a b432 a8ba a364 65bc 4e84 c73d
00000310: e986 dfbd 11e3 373e e1e4 96be 352f 293e
00000320: 8b66 213d af3e 3b3d 5d9d 80bd f0ee 08be
00000330: ae60 9bbe 8e00 53be dc96 153d 4c14 13be
00000340: fba0 30be ca96 2f3d 60a5 42be 7a83 e63d
00000350: 1f2f 42be 2e2c 573d de18 3bbd 6d10 bbbd
00000360: 986f 68bd 2b1f 9fbd 2775 153e 3f86 233a
00000370: 1850 0f3b 0d24 a8ba 70cb d4bd 43d7 0b3e
00000380: 1d43 77bd 1b8f f03d 0dcd 5f3e 1258 29be
00000390: 1a54 023b 2920 903e 8b53 e63d fe60 12ba
000003a0: d51f cb3d c2ac 82bc 5504 243c bd08 a53d
000003b0: 9c00 4b3d 6621 10be 9168 463e 5fd0 433c
000003c0: 41f8 933d 742e 103e 8bd5 463d a5df f13c
000003d0: f704 c73d 3eeb 7f3d 5457 22bd d068 43bd
000003e0: d21f 89bc b6e1 023e 7943 cd3d 57ae 213d
000003f0: 51aa 633d b366 af3c 590e 20be e20d 23bd
-0.006421771 -0.13195567 -0.061374594 -0.0781297 -0.123734795 -0.010644162 0.20504062 -0.11761687
0.1377945 -0.028011378 -0.0749406 -0.06734642 0.026613334 0.18199314 -0.02119545 -0.095781885
-0.04186041 -0.032226898 0.037254617 0.039636858 -0.076357916 -0.027883215 -0.03230796 -0.08904058
0.014444202 -0.13318942 0.041474514 0.12643512 0.054833557 0.11834765 -0.05158708 -0.26256716
-0.019406972 0.050563775 -0.14926241 -0.1640477 -0.12219798 0.15288348 0.023764614 0.12834978
-0.097722515 0.209305 0.061564237 -0.07574174 -0.044128563 -0.17606969 -0.08569067 0.25443766
0.014658043 0.004074856 -0.056948613 0.025566418 0.20806862 -0.020950846 -0.20162551 -0.06497545
-0.09989858 0.24617206 -0.05199386 -0.11240292 -0.03448237 -0.02817536 -0.04508202 -0.10582393
-0.09126346 0.007425836 0.2097083 0.122592345 0.029610952 -0.0342945 -0.11429328 0.05197221
0.12212015 0.049596418 -0.030248633 -0.0065625575 -0.0056915544 0.02243384 0.16745603 0.0074327025
0.24889655 -0.11499687 -0.099262334 -0.22086035 -0.09286305 -0.054822538 0.15097879 -0.07000933
0.016756926 -0.18235308 -0.03328625 -0.0792693 0.06703498 0.0902138 0.010234784 0.13901241
0.013305288 -0.038277697 -0.08156205 0.09668643 0.12489157 -0.01838206 -0.061854877 -0.17140596
0.0890952 -0.099944055 -0.107282795 0.23388512 -0.0031077326 0.06367418 0.050981585 -0.21667476
-0.091616556 0.19639607 0.057268385 0.025454076 -0.07068606 0.06950315 -0.22460996 0.22541398
0.0028002919 0.11105833 -0.04712638 -0.17953347 0.07733829 -0.064174995 0.10370333 -0.03735763
0.026367165 -0.087747805 -0.016031278 0.06957248 0.1320727 0.045344558 -0.12682018 -0.0024048584
0.13204017 -0.016942708 0.07226003 0.03982675 0.07639248 0.140445 0.14455728 -0.0355554
0.07715719 0.1320371 -0.16426136 -0.08494124 0.1597133 -0.2623562 0.12607868 -0.13723363
0.067922994 -0.0062553277 -0.21312433 -0.008854362 0.16860427 0.13061692 -0.07286753 -0.0723946
-0.09165305 0.08821161 -0.21093656 0.07195675 0.13356955 0.31072226 0.065937646 -0.1295503
-0.11044712 0.06599554 -0.18307893 0.07063303 -0.009458964 0.068735875 0.00093460706 0.22567084
0.09779364 0.14161041 0.1676389 0.23872472 -0.036048684 -0.048877995 0.10798572 0.06517027
0.096920736 0.15724875 -0.0018087943 -0.2856154 0.025948618 0.052287765 -0.042530425 0.054827914
0.0016934818 -0.0012832494 -0.014001044 0.09742032 -0.10914404 0.17957713 -0.29471496 0.16521914
0.039404433 0.045714077 -0.06280015 -0.13372397 -0.30347198 -0.2060568 0.036520824 -0.14363211
-0.17248909 0.042868413 -0.19008398 0.11255546 -0.18963288 0.052532367 -0.045678012 -0.09133992
-0.05674705 -0.07769617 0.14595471 0.0006237961 0.0021867808 -0.0012828127 -0.10390365 0.13656335
-0.06036674 0.11746045 0.21855564 -0.16537502 0.0019886554 0.28149536 0.11246403 -0.0005583911
0.09918181 -0.015951518 0.010010798 0.08058307 0.049561128 -0.1407524 0.19375826 0.011951535
0.07225085 0.1408022 0.048543494 0.029525587 0.09717744 0.062480204 -0.039634064 -0.04770738
-0.016738806 0.12781414 0.10022635 0.039472904 0.05558235 0.021411275 -0.15630473 -0.03980816

fc2.bias f4 [84]
00000000: a7e8 b13d f451 bc3d 91f1 9abd 3bdc 14bd
00000010: 8d44 4c3d 32ee 893c 5cb9 a23d 3669 133e
00000020: 6856 f0bb 566c 2abc 2362 a93d cb10 d63d
00000030: 5c34 98bd 57e5 9c3d 70c4 233d 7345 623d
00000040: df0f a3bc 2588 7b3d dae2 f6bd bf04 5c3c
00000050: d70f 563d a087 a93d 7e85 253d 0827 adbd
00000060: 5961 3abd 4564 37bd 51d5 bd3d f495 0fbd
00000070: 7f1f fa3c d22f 0a3e 8bfa aabd 617e 983d
00000080: 2f03 b4bb 8858 893d 4589 af3d cb42 2f3b
00000090: f5d6 a23d cece 2d3c 6337 103d 8366 733d
000000a0: 6bcd a33d 4db9 14ba 7ad8 c6ba ef72 64bd
000000b0: c710 e2bb 0341 573d 12a3 8b39 9f76 063e
000000c0: e6d3 553d 96d8 f5bc f001 15bc 0aa9 853e
000000d0: 1800 bdbd 0a5d 8fbd cea7 d13d 24bc cbbc
000000e0: 0e9a 723d 8651 1139 50f2 e1bd c0d5 a53d
000000f0: 735c 7c3d 10fd 89bc a0ea c0bd bf64 833d
00000100: ac0a c53d f820 c03d dbdd f0ba ca15 9cbd
00000110: c911 173d 6f2f f9ba d802 88bd 09db e63d
00000120: 0445 40bd 0ea0 813d 1d52 3cbd 73a2 cfbc
00000130: 5777 b1bd 45be 333e d011 c7bb 1442 d83d
00000140: edf6 a6bb 5db2 f73c 6be5 4439 a2e8 5e3c
0.08686953 0.09195319 -0.075656064 -0.03634284 0.049870063 0.016837213 0.07945511 0.14395604
-0.007334519 -0.010401806 0.08270671 0.10452422 -0.07431862 0.076609306 0.03998226 0.055242013
-0.019905029 0.061409134 -0.12054987 0.013428866 0.0522612 0.082778215 0.04041051 -0.0845471
-0.045502994 -0.04477336 0.092692025 -0.035055116 0.030532597 0.13494805 -0.083485685 0.0744598
-0.0054935436 0.06706339 0.08571104 0.0026742693 0.07951156 0.010608388 0.03520907 0.059423935
0.07998165 -0.0005673364 -0.0015170716 -0.05577367 -0.0068989727 0.052552234 0.00026633643 0.13131188
0.052204035 -0.030010503 -0.0090947 0.2610553 -0.092285335 -0.07000168 0.10237084 -0.024869986
0.05922895 0.00013858647 -0.110325456 0.0809741 0.061611604 -0.016844302 -0.09419751 0.064157
0.09621176 0.09381288 -0.0018376665 -0.076213434 0.036882196 -0.0019011329 -0.066411674 0.112722464
-0.04694082 0.06329356 -0.045976747 -0.025346017 -0.086653404 0.17553051 -0.0060751215 0.105594784
-0.005095354 0.030236417 0.00018777481 0.013605269

fc3.weight f4 [10, 84]
00000000: 55e1 43be 5896 2dbe 01cf 3b3e 947e 733c
00000010: f383 80be 81b1 63bd 0d9b aa3e 666f 833e
00000020: 1865 473e ed13 bfba 7017 d63d e4ff 8dbe
00000030: a23b 093d 55f4 89bd aabf 7e3e 36a6 97bd
00000040: ea2d 9e3d 064b b7bd a037 383e 8f68 8ebd
00000050: 28bd ac3e 5958 d63e fe32 763e 722d 3e3e
00000060: dd75 ddbd 9c37 b53d adff a73e d9ca 82be
00000070: 0d00 493e 96a6 783d e37f 73be cc56 3ebd
00000080: e43a 12be d9c8 d63e 66f8 f7bc 0049 13bd
00000090: 28a0 b5bd d51a 0b3f 5724 d7be 150e 163e
000000a0: 1270 d6bd 4599 d7bd 7ccc 95bd 0ef7 9b3d
000000b0: f73a 12be 99c0 763e 48a1 653a 5e3d f2bd
000000c0: 18a2 f4be d492 8bbd 82b9 b43d e584 abbe
000000d0: 6e10 57bd 2b50 dbbb 12d0 fc3d e844 c53d
000000e0: 14e4 9dbe 3fc9 62bd 28aa 79bd cda1 9c3e
000000f0: 9b35 a13e 1e5a cebd 68d8 103e e70e f73d
00000100: 86ee 4c3e a332 96bd e54c f4bd fd4c 023d
00000110: 8f9a 183d 20eb 1abe ff1d 07be db3f 8b3e
00000120: b46b e3bd b01d 50be e2b3 1bbe 27d2 46bd
00000130: ff86 34bc 74a5 9fbe 78f9 a73d 4b66 4ebe
00000140: d585 a6bd 5078 f43c 5666 a13d ae90 873e
00000150: 85dd 3c3e 2d49 e9bd d1c2 5e3e 1175 b33d
00000160: 308a 9d3e b7ef aa3e 981d 78bd 30ce b5bd
00000170: 8929 5a3d c476 1f3d 90f1 e23d 7563 903e
00000180: 7e16 f33d d4c8 c1bc 5bc7 51be bfeb eb3e
00000190: f599 c13d 0cc0 bcbd 1ff2 a83d 0414 9bbe
000001a0: be38 263e 0dea 17be 0aaf 10be bc60 a33d
000001b0: 9dbb 3bbd 9cf3 613d 1787 c0bd 3207 8ebe
000001c0: 42be 66bd f55d 57be d5b8 a3bd 882e 933e
000001d0: abf1 1bbe 9c56 e83d 1c49 25be cbdd 2dbe
000001e0: 9449 5e3e b247 f13b 0861 1abe 66d6 ffbe
000001f0: 3b1a 083f 1bbb 113d 16a9 e23d a000 d23d
00000200: dfef 4cbe 3b97 0abe ea96 1abe 9b46 af3e
00000210: 41f6 a03e e7f6 213e 33a3 943d ced0 8dbe
00000220: 811c 36bd 3eb4 12be a83e 993e 9afe 153e
00000230: fb63 073f f0b1 dbbd 6591 b5bd e720 30bd
00000240: 5bad 9bbe ea2c 4a3d d6dd e43e 17fb 0c3d
00000250: 8d1b 72bd 29d6 99be fb27 a73e ff85 303d
00000260: 20ab 003e 2caa 68be 80df f73c 1ebc aebe
00000270: 0738 6ebe bb95 003e 4a23 c0bd 7c51 b5bc
00000280: 1d2f 10bd 4f5a cfbe efbb 173e b3d5 7e3e
00000290: 5e25 723e 1552 423e ed83 8e3e 741b 0c3e
000002a0: 1c22 c1be 2934 dfbe 3a7a 4f3e 6793 573d
000002b0: 12f0 d13b e85d 5bbe 4733 b53e d58b 7e3e
000002c0: 0da0 d83d d7f7 143e a68f fa3d a4af 913d
000002d0: 8078 85bd 6683 3ebd 692c 92be 6c9d 4c3d
000002e0: 7914 c3bd f522 3dbd 8958 7a3e 849a f93e
000002f0: c409 dcbe 10f7 483e b263 a5be 92b9 de3d
00000300: effc 1a3e d063 d5bc 2ddc 00bd 158f 2d3d
00000310: 46a6 12be 4cf0 90be 0824 893d 76d6 1b3e
00000320: b125 e33e c5d8 9e3e e7db 0a3d 1a0f 0a3e
00000330: 2a9f 85be dd40 f8bc ba80 dfbd 34ee 0ebd
00000340: 9e31 19be d6ee 643e 2432 c7bd 53a6 093d
00000350: 1cbe efbd a665 a23e d42c 33be cb17 d9bd
00000360: ed1f 913e 68b8 adbd b91c 30be 30dc c3be
00000370: e972 37bc e197 803e f2a4 81be 1143 5e3e
00000380: 8c79 dd3e dc50 d6bd 869e 363c e702 95be
00000390: ef31 033e 7260 13bd 0a12 80be 76fc 17bd
000003a0: e8bb 9ebe e8c6 fd3e 2b1c ccbe deb6 603e
000003b0: 1c61 d23c 4a5d 6abd 2067 8dbd 1b43 4dbe
000003c0: f1a8 e13e 401d ce3d 573e 85be 6a68 cebd
000003d0: 3f85 3dbd 7583 c23c 9869 78bb 1bfc 97be
000003e0: 4366 2fbd c1a6 273f 76fb 7ebe 7807 5bbe
000003f0: 3a36 243e 3824 cfbe 73ce 4abe 2577 7fbd
-0.19128926 -0.16951883 0.18340684 0.014861722 -0.2510067 -0.055589203 0.3332142 0.25670928
0.19472158 -0.0014578082 0.10453689 -0.27734292 0.033504136 -0.06736056 0.24877802 -0.07404749
0.07723601 -0.089498565 0.17989969 -0.06953537 0.33738065 0.4186428 0.2404289 0.18572024
-0.10813496 0.08848497 0.32812253 -0.25545385 0.19628926 0.060705744 -0.23779254 -0.046469495
-0.14280277 0.4195011 -0.030269813 -0.03595829 -0.08868438 0.5433782 -0.42019913 0.1465381
-0.104705945 -0.10527281 -0.07314393 0.07615481 -0.14280306 0.24096908 0.00087596895 -0.11828111
-0.47779918 -0.068151146 0.08824445 -0.33499828 -0.052505903 -0.0066929064 0.12344374 0.096322834
-0.30838072 -0.055367704 -0.06095329 0.30592194 0.3148621 -0.10075782 0.14145052 0.12063389
0.20012864 -0.07333877 -0.11928729 0.031811703 0.037256774 -0.15128756 -0.13195036 0.27197155
-0.11104527 -0.20323825 -0.15205339 -0.04854026 -0.011018514 -0.31180918 0.08201879 -0.20156209
-0.08130995 0.029842526 0.07880847 0.2647757 0.18443878 -0.1139091 0.21754004 0.08762563
0.3076949 0.33386013 -0.060575098 -0.08877218 0.053262267 0.038931623 0.11081231 0.2820088
0.118695244 -0.023655333 -0.20486204 0.46078297 0.09453193 -0.092163175 0.08249306 -0.30288708
0.16232583 -0.14835377 -0.14129272 0.07977435 -0.04583322 0.055163965 -0.09400766 -0.27739865
-0.056333788 -0.21031936 -0.07994238 0.28746438 -0.15228908 0.113446444 -0.1614117 -0.16979139
0.21707755 0.007363283 -0.15076077 -0.4996826 0.53165025 0.03557883 0.11067407 0.102540255
-0.20013379 -0.13534252 -0.15096632 0.34233555 0.31437877 0.15816842 0.0725769 -0.27698368
-0.044460777 -0.1432657 0.29930615 0.14647904 0.52886933 -0.10727298 -0.088656224 -0.043000128
-0.30405697 0.04935924 0.44700497 0.034419145 -0.059108306 -0.30046204 0.3264769 0.04309654
0.12565279 -0.22721165 0.03025794 -0.34127897 -0.2326356 0.12557118 -0.09381731 -0.022133581
-0.03520118 -0.40498587 0.14817785 0.24886207 0.23647067 0.18976624 0.27835026 0.13682348
-0.37721336 -0.43594483 0.2026147 0.05263081 0.0064067924 -0.21422541 0.35390684 0.24858029
0.10577402 0.14547668 0.1223443 0.07113579 -0.06517124 -0.04651203 -0.28549507 0.049954817
-0.09525389 -0.046175916 0.24447836 0.487507 -0.429762 0.19625497 -0.32302624 0.108752385
0.15135549 -0.02604857 -0.031459976 0.04237278 -0.14321241 -0.28308332 0.066963255 0.15218529
0.44364694 0.31024757 0.03390112 0.13482323 -0.26097995 -0.030304367 -0.109132245 -0.034895137
-0.14960334 0.22356734 -0.097263604 0.033605885 -0.11706182 0.31718177 -0.1749757 -0.10600241
0.2834467 -0.08482438 -0.17198457 -0.38253927 -0.01119683 0.25115874 -0.25321156 0.21705271
0.43256795 -0.104646415 0.011146193 -0.29103777 0.12812017 -0.03598065 -0.25013763 -0.037106
-0.31002736 0.49565816 -0.3986524 0.21944758 0.025681071 -0.057217874 -0.06904435 -0.2004513
0.44074205 0.10064173 -0.26024124 -0.10078509 -0.04626965 0.023744324 -0.0037904736 -0.2968453
-0.042822134 0.6548882 -0.24900612 -0.21389568 0.16036311 -0.4045732 -0.19805317 -0.062369484

fc3.bias f4 [10]
00000000: 8e38 b63d 2630 353e ff13 3e3d 6b38 803e
00000010: c696 dd3d 70a4 a13d 309d cab9 425e 863c
00000020: fd9f 1a3e 93c6 d0bd
0.08897506 0.17694148 0.04640579 0.25043043 0.108197734 0.07892692 -0.00038645556 0.016402368
0.15100093 -0.10194125
